…
      "Model: \"model_4\"\n",
      "__________________________________________________________________________________________________\n",
      "Layer (type)                    Output Shape         Param #     Connected to                     \n",
      "==================================================================================================\n",
      "input_5 (InputLayer)            [(None, 64, 64, 3)]  0                                            \n",
      "__________________________________________________________________________________________________\n",
      "encode_conv1 (Conv2D)           (None, 32, 32, 32)   896         input_5[0][0]                    \n",
      "__________________________________________________________________________________________________\n",
      "batch_normalization_12 (BatchNo (None, 32, 32, 32)   128         encode_conv1[0][0]               \n",
      "__________________________________________________________________________________________________\n",
      "encode_conv2 (Conv2D)           (None, 16, 16, 64)   18496       batch_normalization_12[0][0]     \n",
      "__________________________________________________________________________________________________\n",
      "batch_normalization_13 (BatchNo (None, 16, 16, 64)   256         encode_conv2[0][0]               \n",
      "__________________________________________________________________________________________________\n",
      "encode_conv3 (Conv2D)           (None, 8, 8, 128)    73856       batch_normalization_13[0][0]     \n",
      "__________________________________________________________________________________________________\n",
      "batch_normalization_14 (BatchNo (None, 8, 8, 128)    512         encode_conv3[0][0]               \n",
      "__________________________________________________________________________________________________\n",
      "encode_flatten (Flatten)        (None, 8192)         0           batch_normalization_14[0][0]     \n",
      "__________________________________________________________________________________________________\n",
      "encode_dense (Dense)            (None, 1024)         8389632     encode_flatten[0][0]             \n",
      "__________________________________________________________________________________________________\n",
      "batch_normalization_15 (BatchNo (None, 1024)         4096        encode_dense[0][0]               \n",
      "__________________________________________________________________________________________________\n",
      "latent_mu (Dense)               (None, 512)          524800      batch_normalization_15[0][0]     \n",
      "__________________________________________________________________________________________________\n",
      "latent_sigma (Dense)            (None, 512)          524800      batch_normalization_15[0][0]     \n",
      "__________________________________________________________________________________________________\n",
      "sampling_2 (Sampling)           (None, 512)          0           latent_mu[0][0]                  \n",
      "                                                                 latent_sigma[0][0]               \n",
      "==================================================================================================\n",
      "Total params: 9,537,472\n",
      "Trainable params: 9,534,976\n",
      "Non-trainable params: 2,496\n",
      "__________________________________________________________________________________________________\n",
      "Model: \"model_5\"\n",
      "_________________________________________________________________\n",
      "Layer (type)                 Output Shape              Param #   \n",
      "=================================================================\n",
      "input_6 (InputLayer)         [(None, 512)]             0         \n",
      "_________________________________________________________________\n",
      "decode_dense1 (Dense)        (None, 8192)              4202496   \n",
      "_________________________________________________________________\n",
      "batch_normalization_16 (Batc (None, 8192)              32768     \n",
      "_________________________________________________________________\n",
      "decode_reshape (Reshape)     (None, 8, 8, 128)         0         \n",
      "_________________________________________________________________\n",
      "decode_conv2d_1 (Conv2DTrans (None, 16, 16, 128)       147584    \n",
      "_________________________________________________________________\n",
      "batch_normalization_17 (Batc (None, 16, 16, 128)       512       \n",
      "_________________________________________________________________\n",
      "decode_conv2d_2 (Conv2DTrans (None, 32, 32, 64)        73792     \n",
      "_________________________________________________________________\n",
      "batch_normalization_18 (Batc (None, 32, 32, 64)        256       \n",
      "_________________________________________________________________\n",
      "decode_conv2d_3 (Conv2DTrans (None, 64, 64, 32)        18464     \n",
      "_________________________________________________________________\n",
      "batch_normalization_19 (Batc (None, 64, 64, 32)        128       \n",
      "_________________________________________________________________\n",
      "decode_final (Conv2DTranspos (None, 64, 64, 3)         867       \n",
      "=================================================================\n",
      "Total params: 4,476,867\n",
      "Trainable params: 4,460,035\n",
      "Non-trainable params: 16,832\n",
      "_________________________________________________________________\n"
     ]
    }
   ],
   "source": [
    "encoder, decoder, vae = get_models(input_shape=(64,64,3,), latent_dim=LATENT_DIM)"
…
